model.pkl (torch, 90063 bytes, 8 tensors)

fc1.weight f4 [100, 8]
000000 5d 93 a5 bb ce 8d 89 3e f5 09 ee be a2 dc f5 3e
       -0.0050529675 0.26866 -0.46491972 0.48019892
000010 b5 67 bf be 23 78 f2 bd 3d 56 c1 be fc 1d 1e 3e
       -0.3738381 -0.118393205 -0.37761107 0.15441126
000020 b9 24 0a 3d 76 a1 d7 be c9 67 a0 be 8e 84 f8 3e
       0.033726428 -0.42115372 -0.31329182 0.4853863
000030 a5 d9 4e 3d 2d 93 31 bd 56 93 d1 3e 68 1a 86 3b
       0.05050053 -0.04335325 0.4093272 0.0040925033
000040 29 9d 1f 3e f4 c5 d6 3d 9d 84 b7 3e 12 ca 64 3e
       0.15587296 0.10486975 0.35843363 0.22342709
000050 0f c1 a1 bd d3 5d 80 be 62 dd dc be 90 c7 40 be
       -0.07898151 -0.25071582 -0.43137652 -0.18826127
000060 78 8e df be 5d 49 14 3e 46 c1 00 3f c9 1f b4 be
       -0.43663383 0.14481111 0.5029491 -0.351805
000070 e4 71 f8 3d 86 a8 a4 be fd 60 9d 3e 7c ef bf 3e
       0.12131098 -0.32159823 0.3073806 0.374874
000080 9f 6f 58 3d ae e2 94 be e2 ce 17 be 35 85 1e 3e
       0.052840825 -0.29079193 -0.14825013 0.15480502
000090 9c 62 6f be 28 5f 54 be 63 59 96 3e 60 5a 67 be
       -0.2337746 -0.20739424 0.29365072 -0.22593069
0000a0 7e cc 76 3e 1f 81 e7 3e 80 d0 8a be 11 ab 35 bd
       0.24101445 0.452157 -0.27112198 -0.044352595
0000b0 2c 02 0c 3e f1 72 88 3d 76 1c da be 01 b8 81 3d
       0.13672704 0.06662548 -0.4259984 0.06333924
0000c0 9e 2d 31 be 15 56 6e 3e b1 cb 75 3e 50 2c ae 3d
       -0.17302558 0.23275025 0.24003483 0.08504546
0000d0 68 c8 6e be f7 9e 69 3e c1 16 65 3e d0 fa 85 3e
       -0.23318636 0.22814547 0.22371961 0.26167917
0000e0 a4 9d 14 bf 5c 78 91 3e 5d 20 ac 3e 2c ce 19 3a
       -0.5805304 0.2841214 0.3361844 0.0005867209
0000f0 9a 71 f1 3d 2e d0 1f 3e 22 b9 85 be c6 c4 42 3c
       0.11789246 0.15606758 -0.26117808 0.011887735
000100 ba dd 38 3e 7e 76 e0 be 7b 64 99 bd 72 2c 4e be
       0.18053332 -0.43840402 -0.07489868 -0.20134142
000110 25 be c5 3e fd 0f e9 be 5a 12 a4 3e 8d 2d 6a be
       0.3862163 -0.4552001 0.3204525 -0.22868939
000120 db ba c0 be 6f 74 5a be 05 22 0c 3f a8 61 71 be
       -0.3764256 -0.21333478 0.5473941 -0.23572409
000130 d2 e4 74 be 67 e3 05 bf 59 25 c1 3e a3 5e e4 3d
       -0.23915413 -0.52300113 0.37723807 0.11150863
000140 31 27 37 bc 72 82 2c 3e 30 ba 76 be 88 db b2 3e
       -0.011178778 0.16846636 -0.24094462 0.34933114
000150 9a d3 ab 3e a4 d1 ad 3e e7 07 84 be 4a 1f f9 bd
       0.33559877 0.33949006 -0.2578728 -0.12164171
000160 77 26 0b be 04 79 99 be c9 b3 cd be ff 49 ea 3e
       -0.13588892 -0.2997514 -0.40176228 0.4575958
000170 d8 d9 cb 3c 04 fe a7 be b6 ce be 3e ed ac d8 bd
       0.02488415 -0.32810986 0.37267083 -0.10579858
000180 e4 bc cd 3e e8 69 36 3e f0 fe 18 bf a5 f2 d1 3e
       0.40183175 0.17813838 -0.59764004 0.41005436
000190 b3 db 15 3e 31 bc c4 3e cf eb a1 be 38 03 13 bd
       0.1463459 0.3842483 -0.3162522 -0.03589174
0001a0 36 0c bb 3e 36 d3 88 3e e3 cb 76 3e e2 1e ac 3d
       0.36532754 0.2672364 0.24101214 0.08404328
0001b0 c6 aa 95 be df e0 b8 be 64 4e a1 3e 00 fb f9 3c
       -0.29231852 -0.36109063 0.3150512 0.030515194
0001c0 6a 0c a9 be 8b 7e 8e 3e 0c b3 82 be 47 ae a7 3e
       -0.33017284 0.2783092 -0.25527227 0.3275015
0001d0 64 20 77 be 20 7f 15 be e4 b2 80 3e 25 c3 f7 3c
       -0.2413345 -0.14599276 0.25136483 0.03024442
0001e0 65 7d 94 be 13 63 c7 3e e8 93 e3 be 64 d6 6c 3e
       -0.29001918 0.38942775 -0.4444878 0.23128659
0001f0 6b 36 2e 3e 11 3b 91 be 33 3e 35 be 39 23 36 3e
       0.17012946 -0.28365377 -0.17699508 0.17786874
000200 b0 38 54 be 0e 76 c2 3e 38 40 aa 3e 57 32 b9 be
       -0.2072475 0.37980694 0.3325212 -0.3617122
000210 a6 d8 38 3e 80 f4 ad be c3 74 4c be 2c a8 93 3e
       0.18051395 -0.339756 -0.19966416 0.28839242
000220 10 a9 c1 be a5 4e df be a1 fe 85 bc c0 c5 0c be
       -0.37824297 -0.4361469 -0.016356768 -0.1374731
000230 76 5a b9 3e 13 ca 36 be f1 9c 4c bd 43 54 0a 3e
       0.3620183 -0.17850523 -0.04995436 0.13508706
000240 70 22 cb be 5b 9e 8d be 08 48 b4 bc ca 14 85 be
       -0.3967471 -0.27659878 -0.022007003 -0.25992423
000250 60 81 79 be eb 14 44 be 73 17 81 3d de 01 81 3e
       -0.24365759 -0.19148605 0.06303301 0.25196737
000260 52 fa f7 3d d9 d9 d1 3d f7 2a 36 3e 4f 5c 1a be
       0.12108292 0.10246629 0.17789827 -0.15074275
000270 1d 68 8e 3e 8c 7f 6f 3e 14 4a a5 3d cd 34 01 3e
       0.27813807 0.23388499 0.0807077 0.12617798
000280 d2 40 be 3e f9 aa 3a bd 86 63 af 3c ec 69 43 be
       0.3715883 -0.04557321 0.021409761 -0.19083375
000290 14 dd 0b 3c 82 aa d5 be 74 cc 9b 3d 2c 69 78 be
       0.008536596 -0.4173165 0.07607356 -0.2425887
0002a0 4d 44 07 be c9 c9 03 bd b1 c5 b2 3e 73 21 35 3e
       -0.13209648 -0.03217486 0.34916452 0.17688541
0002b0 b1 4a d9 be 2a a3 76 be 66 4e 41 be bf cd bd 3d
       -0.42439798 -0.2408568 -0.18877563 0.092677586
0002c0 a6 c7 8c 3d 69 1b 5d 3e 58 ba 0a be 51 b7 71 bd
       0.068740174 0.21592487 -0.13547647 -0.059012715
0002d0 92 b5 93 bd 2c d5 bf 3e 63 01 07 be 0e 60 93 3c
       -0.07212366 0.37467325 -0.13184123 0.017990138
0002e0 38 62 b1 be 33 a2 64 be b7 67 eb 3e c8 a9 af be
       -0.34645247 -0.22327499 0.45977566 -0.3430922
0002f0 59 66 0a 3f 43 cd 3e bd 9e 5f f7 3d 73 e6 8b 3e
       0.5406242 -0.04658247 0.120787844 0.27324256
000300 56 2f c0 3e 11 96 f6 3e 4f 69 6e be 96 a1 56 bd
       0.37536114 0.48161367 -0.2328236 -0.052400194
000310 36 33 5c 3d bb bd a2 bb 65 75 9e be 9c bf ac be
       0.053759776 -0.0049664653 -0.3094894 -0.33739936
000320 c0 22 0a bd 56 18 bf 3e 3b 1f e8 bd f6 8a 98 3e
       -0.033724546 0.37323254 -0.11334082 0.2979352
000330 14 4a ff bd dc d9 09 bf d2 bc cb be 1f 8b 99 be
       -0.12465301 -0.5384805 -0.39792496 -0.29988953
000340 e3 74 7a be 4f 6c 0a 3e a2 51 0d 3e 2b fd 31 be
       -0.24458651 0.13517879 0.13800672 -0.17381732
000350 85 59 ae bd 36 c4 85 be 2c 16 d9 3d 17 54 45 be
       -0.08513168 -0.2612626 0.10599932 -0.19270359
000360 c5 9f 72 3d c7 42 3e bd e6 2d a0 be 58 09 f7 3e
       0.0592344 -0.046450403 -0.31285018 0.48249316
000370 49 c8 bf be dd 31 5f bd a8 ee 1b bd 22 db 24 be
       -0.37457493 -0.054490913 -0.038069397 -0.16099218
000380 ae 49 a1 be d4 da 56 3e 59 f5 97 be 81 00 cc 3d
       -0.31501526 0.20981914 -0.29679373 0.099610336
000390 27 5e 59 3e e3 79 90 3e 7a a9 b4 3e d6 da 0f 3e
       0.21227323 0.28217992 0.3528555 0.14048323
0003a0 26 a3 12 3f 4a 3b 50 be 49 27 d5 bd 55 69 c6 3e
       0.57280195 -0.20335117 -0.10407884 0.38752237
0003b0 1c de 9a be 64 b5 e3 bc 3e 54 30 be 44 e6 99 be
       -0.3024758 -0.027796455 -0.17219636 -0.3005849
0003c0 45 7d c5 be f0 b0 1c 3e 8d 4c a7 3e 3e cf 22 be
       -0.38572136 0.15301871 0.3267559 -0.15899369
0003d0 94 69 d2 be 6c 4f 3f 3e e9 d9 a3 3e 1f d5 7b bd
       -0.41096175 0.18682641 0.3200219 -0.061482545
0003e0 b2 75 ee be dc 27 bb 3e 40 6f 00 3e d8 40 26 be
       -0.4657417 0.36553848 0.12542439 -0.16235673
0003f0 f2 4a 10 3e 1a 3f 49 3e ca 46 b2 be f6 a3 61 be
       0.1409109 0.19652978 -0.34819633 -0.22035202

fc1.bias f4 [100]
000000 b1 62 20 bd 77 f3 40 be 2a 76 4d 3e 19 b1 52 be
       -0.03915662 -0.18842874 0.20064607 -0.2057537
000010 9e 30 eb bb 86 9f 01 bd 86 81 59 be 49 e5 a2 3e
       -0.0071774265 -0.031646274 -0.21240816 0.31815556
000020 ef 9c bf bd 8d 4c 27 3e 3e 2b 8e be dd e6 44 bd
       -0.093561046 0.16337796 -0.27767366 -0.04807173
000030 33 1f a2 3d fb 86 37 be b9 b5 d7 3d 20 ab 0f 3e
       0.07916107 -0.17922585 0.10532708 0.14030123
000040 80 5c 55 3e 03 08 54 3e 44 57 a1 3d b1 0e ac be
       0.20836067 0.20706181 0.07877973 -0.3360496
000050 ed 6f 76 3d 93 b7 5f 3e 6c 5e b3 be 0f 64 10 be
       0.060165334 0.21847372 -0.35032976 -0.1410067
000060 97 46 12 3e 7b e3 67 be 19 51 bd 3d ef c6 65 3c
       0.1428474 -0.2264537 0.09243984 0.01402448
000070 8c b5 fa bd d9 9d c3 3b fa e9 a9 bd 63 c9 e5 3d
       -0.122416586 0.0059697446 -0.082965806 0.11220052
000080 8c 50 68 3e 6a 11 96 be 1a 10 11 bd 11 d0 9b 3e
       0.22686976 -0.2931016 -0.035415746 0.3043218
000090 01 b8 86 3d 46 da 47 3e 3f 7f aa bd 0f e8 a9 3e
       0.06578065 0.19516858 -0.083250515 0.3318486
0000a0 2e e0 62 be d4 99 2f bd 38 48 b9 ba 7e 1c 55 be
       -0.2215583 -0.04287131 -0.0014135903 -0.2081165
0000b0 2b ac aa 3d c8 8d 8a 3e 25 62 0b 3d bf b7 19 be
       0.0833362 0.27061296 0.034029145 -0.150115
0000c0 66 89 72 be cf 82 2a be 55 b0 90 3e 47 77 0f be
       -0.23685226 -0.16651462 0.2825953 -0.14010344
0000d0 f0 61 45 bc ba 0d 35 3e d4 aa d0 bc b2 65 14 bd
       -0.012047276 0.17681018 -0.025472082 -0.036229797
0000e0 ad 89 38 3e a5 06 33 3e 63 b6 60 3e e6 05 90 be
       0.18021269 0.17483003 0.21944575 -0.281295
0000f0 c7 12 85 be 35 eb 0a 3e ca 51 8b be 09 7a 9d bd
       -0.25990888 0.13566287 -0.27210838 -0.07689292
000100 f7 12 26 3e b7 44 bd bc ab e6 4d 3e cb fd 1c 3d
       0.16218172 -0.023104055 0.20107524 0.038327973
000110 41 af ae 3c 22 5f 84 be 1e ab 24 be 22 2f 29 3e
       0.021323802 -0.2585383 -0.16080901 0.16521886
000120 f2 e2 96 3e 26 30 24 be e4 ab 1f be c1 cc 4b be
       0.2947002 -0.16033992 -0.15592915 -0.19902326
000130 60 46 68 3e 97 4a 81 bd 9c 1f 60 3e 9e 8c 8f 3e
       0.22683096 -0.06313055 0.21887058 0.2803697
000140 03 c7 80 3e a0 8f 93 be 2c 00 f7 3d 5c b8 08 be
       0.25151834 -0.28820515 0.1206058 -0.13351578
000150 61 63 58 3d 82 c2 9a 3d 79 6f ac bc b9 27 96 3e
       0.05282915 0.07556631 -0.021049248 0.2932718
000160 eb df 0e bd 00 56 a4 3d c4 1e 66 be 7f 49 0e 3e
       -0.034881514 0.08024216 -0.22472674 0.13895224
000170 49 d5 03 bd 18 09 b5 be 23 5e b9 3d 4a 69 98 3e
       -0.032185826 -0.353585 0.09051158 0.2976783
000180 c8 ce d7 bd 9b 3f 66 3e d1 2c 93 3e c1 0e 26 be
       -0.10537487 0.22485201 0.2874513 -0.16216566

fc2.weight f4 [100, 100]
000000 d6 01 ac 3c b1 29 db 3d 5b 82 c2 bd 3f fa 73 3d
       0.02099697 0.107013114 -0.094975196 0.059564825
000010 83 e6 1d bd c5 e5 d4 3d 06 3e 01 3e 15 e3 95 bc
       -0.03854991 0.103953876 0.12621316 -0.018296758
000020 c4 4b 33 be ad ec 0e bb 0d 28 60 bd 48 1f 7e 3d
       -0.17509371 -0.002180855 -0.054725695 0.06204155
000030 29 f6 2d 3d 96 e2 36 3c 32 22 2d 3e bb f3 a7 3d
       0.042471085 0.011162421 0.16907576 0.08200785
000040 78 94 cb 3d 40 44 df bd 3a cc 9d bd 91 69 f3 3d
       0.099404275 -0.109016895 -0.07704969 0.118853696
000050 04 eb 9c bd 57 2f 3c 3d 7c cb 9e 3d 38 6c 90 3d
       -0.07662013 0.045943584 0.07753655 0.07051891
000060 a5 d8 83 39 0b c8 65 bd 4f 45 bc bd f2 f2 0b bd
       0.0002514768 -0.05609898 -0.09192907 -0.034167238
000070 31 1e d8 bc 17 ca 82 3c 3d fb d6 3c 5a 2e 82 3d
       -0.026381584 0.015965505 0.026242847 0.06356497
000080 c2 79 13 be 75 c3 a7 bd 92 2c e8 3d 00 b1 2f be
       -0.14401916 -0.08191577 0.11336626 -0.17157364
000090 0c b3 25 bd 89 81 83 bd 86 0e 09 3d b0 55 18 bd
       -0.040453956 -0.06421191 0.033461116 -0.037191093
0000a0 e4 6a 29 3d 20 9e 2b bb 3f 0f f0 bd 6f 13 4d bc
       0.041361704 -0.002618678 -0.11721658 -0.01251684
0000b0 95 a9 7a bd 7c 30 8c bd 2b 19 34 bd 67 c9 62 3d
       -0.061196882 -0.06845185 -0.043969315 0.055367853
0000c0 03 2b 84 bd 2d 85 ae 3d ed cb fa bd 64 52 e7 bd
       -0.06453516 0.08521495 -0.12245927 -0.11295012
0000d0 83 06 e7 bd 77 8a 8a bd 08 e4 4b bd 6e e8 03 3d
       -0.11280539 -0.06764691 -0.049778014 0.032204084
0000e0 0b e6 01 bd 96 1a 8b 3d e3 a0 1a bc d0 43 72 bd
       -0.031713527 0.0679218 -0.009437772 -0.059146702
0000f0 2c cb 31 3c 60 50 01 3d 34 e6 4c bd 8f 59 a1 bd
       0.010851663 0.031570792 -0.050024226 -0.0787841
000100 41 db 13 bd c5 d9 d5 bb c3 80 44 3d 84 18 c9 3d
       -0.03609777 -0.0065262043 0.04797436 0.09819129
000110 45 05 cc 3c 3f ed 3d 3e 2d 34 25 3e dc 21 9d 3d
       0.024904856 0.18547533 0.16133185 0.07672474
000120 a4 da 19 bd 73 8f dc 3d 10 e9 b3 3d 59 75 87 3d
       -0.037562028 0.10769548 0.087846875 0.06614179
000130 2a b9 7a bc 3c d5 24 ba b0 26 3e 3d af a8 5c 3a
       -0.015302936 -0.0006287878 0.046423614 0.000841747
000140 db 7d 0b bd 2b 8e 89 3d 5b 99 ac bd d9 95 42 3d
       -0.034055572 0.067165695 -0.08427688 0.047506187
000150 8c 69 af bd 7e df 07 bd 24 bf ae 3d 64 ab 8c bd
       -0.08565053 -0.033172123 0.08532551 -0.06868628
000160 fb 19 d9 bd 21 d4 98 bb 07 ec 83 3d 28 89 6c 3c
       -0.106006585 -0.0046639596 0.06441503 0.0144369975
000170 5b 44 b6 bd 94 1d 39 3e ea a7 de 3d a5 de b2 bc
       -0.088997565 0.1807769 0.10871871 -0.02183468
000180 b2 83 cf 3d 01 4a 4a 3d 60 25 71 3d b2 97 38 3d
       0.10132541 0.049386982 0.058873534 0.045066543
000190 25 f7 94 bd 6c 2c c7 bc f4 28 3e 3d f2 fb 0e 3c
       -0.072737016 -0.024313174 0.046425775 0.008727061
0001a0 bc d4 8b 3d 82 44 f2 bd 82 bf 5e 3c b2 3d ae 3d
       0.06827685 -0.11829473 0.013595464 0.08507861
0001b0 a7 02 5b 3d 1b 91 fb 3d 90 8b 99 bd 71 67 97 bd
       0.053469326 0.12283536 -0.074973226 -0.07392777
0001c0 7b 66 be 3c a8 ae 2a 3c ae 84 1a bb 44 c9 cc bd
       0.023242226 0.010417618 -0.0023577618 -0.09999326
0001d0 70 9d bc 3d da da cc 3b fc d5 b3 3d 59 1e 61 bd
       0.09209716 0.006251675 0.08781049 -0.054960582
0001e0 cd aa bc 3d 88 3e 95 3d dc 41 46 3d 41 9e b3 3d
       0.09212265 0.072873175 0.048402652 0.08770419
0001f0 4a 51 94 bd 90 a2 8e 3d bb ae 4f bd f0 f9 a5 3d
       -0.07242067 0.069646 -0.050703745 0.081043124
000200 15 48 85 bd 17 63 83 3d e0 8a 4a 3d a6 d5 f3 bc
       -0.06507889 0.06415384 0.049448848 -0.029764961
000210 68 05 1a bc a8 25 18 bc 29 bd a2 3b b2 4c 27 3d
       -0.009400703 -0.009286322 0.0049663973 0.040844627
000220 90 f5 0d bc 99 1a b5 3d 22 e4 c9 bd ca ee 19 3e
       -0.008664504 0.08842964 -0.09857966 0.15032497
000230 41 18 a5 3d e6 f2 2f 3d 5f d5 f5 bc 07 4c b4 3d
       0.08061267 0.042956255 -0.03000897 0.088035636
000240 09 92 b2 3d 04 23 cd 3d 82 70 b1 bd 0c b3 45 bd
       0.0871926 0.10016444 -0.08664037 -0.048266456
000250 da 2c cd bc 28 e8 45 3c ef c0 56 3d 9d ab 56 bd
       -0.025045801 0.012079276 0.05243009 -0.052409757
000260 d3 41 54 bc 8c 49 97 3d b0 c8 8d bc 66 28 b6 3d
       -0.012955147 0.07387075 -0.01730761 0.08894424
000270 0c 77 b6 bd 33 8f 69 3d 49 48 aa bd 12 ff 14 be
       -0.08909425 0.05702133 -0.083145685 -0.14550427
000280 99 12 5d 3d 69 e1 fc 3c ff ec f2 3c 66 fc 50 3c
       0.053972814 0.030869203 0.029654024 0.012755489
000290 f9 79 3c bc c1 55 30 bd f8 d3 54 3d bc f7 fd 3b
       -0.01150369 -0.04305053 0.05195996 0.0077504795
0002a0 47 4d a5 3c 04 e6 41 3d 8b ff de bc 29 5f b9 bc
       0.02017845 0.0473385 -0.027221462 -0.022628384
0002b0 a2 15 c3 bd a1 f2 d2 bd ea c8 01 3d da 96 f1 bb
       -0.095256105 -0.10300184 0.031685747 -0.0073727192
0002c0 dd 42 a1 bd 00 eb 0e be f5 19 30 bb 39 19 9b bd
       -0.07874081 -0.13956833 -0.002687094 -0.0757317
0002d0 4e d2 5e bd 6d aa bd bd 65 12 f4 3d 5d 1f 5d bb
       -0.05439978 -0.09261022 0.11917571 -0.0033740618
0002e0 34 51 49 3d a1 31 62 3d e7 50 9b bd 34 36 64 bd
       0.049149707 0.05522311 -0.0758379 -0.055715755
0002f0 9f ad 72 bc 78 3d e0 3d 64 a0 7d 3d 94 13 2b 3b
       -0.014811902 0.10949224 0.06192054 0.0026104199
000300 30 18 e1 bd f6 72 9e 3d ad e4 e0 3c 02 d3 04 3e
       -0.109909415 0.07736771 0.027452791 0.12971118
000310 7e 60 26 3d 72 7a ce 3d 77 61 9e 3b d8 0d 73 3c
       0.040619366 0.10081948 0.004833396 0.014834844
000320 46 6c 8c bd 4d db 22 3d 91 91 df bd a8 68 bc 3c
       -0.06856589 0.039759923 -0.109164365 0.022999123
000330 ab 20 d5 3c 00 90 05 bf 4d b7 2c 3d 5b 6f 3f 3e
       0.026016554 -0.5217285 0.042166997 0.18694822
000340 af ba 82 3d 70 73 16 3f 2c da 0b 3c 69 e6 5f 3e
       0.06383263 0.58769894 0.008535903 0.21865238
000350 db 00 f4 bc 6b da e2 be 99 b5 6a 3e a0 d1 cf bd
       -0.029785564 -0.44307265 0.22920837 -0.10147405
000360 43 a6 93 bb 54 4e 18 3f bf e4 6e 3e 2f e0 ec bd
       -0.004505904 0.5949452 0.23329447 -0.11566197
000370 6b 3d 7d be 31 df 3b 3e 63 cd c3 bd e7 56 1b 3e
       -0.2473046 0.1834686 -0.09560659 0.1516987
000380 2e a7 0d be a6 e7 e5 bd de 68 ac 3d 8c c1 34 bd
       -0.13833305 -0.11225824 0.08418439 -0.044129893
000390 59 f2 41 bd 25 34 18 be d1 c1 c6 3d 76 bd 7a 3e
       -0.04735026 -0.14863642 0.09704936 0.24486336
0003a0 cb e0 66 3e 40 e9 3f bf 04 e9 65 3b 5f aa c9 3e
       0.22546689 -0.74965286 0.0035081515 0.39387795
0003b0 36 80 2d be db 8b 26 3f 16 97 ca be e1 f4 1d 3e
       -0.1694344 0.6505715 -0.39568394 0.15425445
0003c0 a8 30 61 3e 4d 2a 10 3d 71 98 e3 3e 98 74 da 3a
       0.21991217 0.03519659 0.4445224 0.0016666828
0003d0 98 af 06 be b5 19 05 be e5 e9 34 3e 5d e6 7b 3e
       -0.13152921 -0.12998088 0.17667349 0.24599595
0003e0 e5 c3 06 be 91 d8 9f 3d 5a 52 9a 3d a7 5c 35 be
       -0.13160665 0.07804979 0.075352386 -0.17711125
0003f0 15 a3 e1 3d b8 92 e2 3e ce 9e 11 3e 7c 56 65 3e
       0.110174336 0.44252563 0.14220735 0.22396272

fc2.bias f4 [100]
000000 8f 83 a7 bd f3 69 8a 3a 8e 59 16 3c 5b f3 9b bc
       -0.0817939 0.001056014 0.009176625 -0.01903694
000010 0a 02 7e bd 82 f4 e0 3d dc 01 69 bd f6 cd 88 3d
       -0.062013663 0.10984136 -0.05688654 0.06679909
000020 f8 ea 0e be 47 88 8d 3b 5e d0 64 bd 93 a6 ec 3d
       -0.13956821 0.004319224 -0.055862777 0.11555209
000030 87 c6 2a 3d 13 7e fa bc ea 3b 39 bd 6f 9d 80 bc
       0.041693237 -0.030577695 -0.045223154 -0.01570007
000040 ee e3 92 3c 31 90 d6 bc c6 65 3d 3c 4d b7 76 bc
       0.017930951 -0.026191803 0.011559909 -0.015058351
000050 47 80 92 3d d2 38 ee 3d cc 0b dc bd 19 f5 9c bd
       0.07153373 0.11631931 -0.107444376 -0.07663936
000060 0a 2a 45 3d 17 24 32 bd 26 76 76 3d 9a 14 85 3d
       0.048135795 -0.04349145 0.06017127 0.0649807
000070 8d 7d 80 3d 89 b2 97 3d 81 f8 1d 3b 3f 45 d7 bd
       0.06273947 0.074071 0.0024104419 -0.105112545
000080 ec c0 c0 bd 9d cf 00 bd 97 ed df bc 79 5e cb 3d
       -0.09411797 -0.031447995 -0.027334971 0.099301286
000090 b9 4d f0 bd da a2 2d bd 19 b9 83 3d a4 0d ad 3d
       -0.117335744 -0.042391635 0.06431789 0.08449867
0000a0 30 43 14 bc de 8b c8 bd 37 f8 54 bc 86 73 ea bc
       -0.009049222 -0.097923025 -0.012998632 -0.028619539
0000b0 5f c8 5e bd 39 c3 13 3d f6 fb 61 bd 35 51 8a bd
       -0.054390308 0.03607485 -0.05517193 -0.0675377
0000c0 f3 89 35 3d a2 5d 48 3b ce 3a d5 bd 7a ba a2 3c
       0.04432101 0.0030573388 -0.10411607 0.01986431
0000d0 9d c8 da bd 9f 66 a8 3c f6 5a 64 3d 7e 1a 9a 3d
       -0.10682795 0.020556746 0.05575081 0.07524584
0000e0 52 5f db 3d e9 15 4a bd 26 22 8c bd 4a 50 e0 bc
       0.1071154 -0.0493373 -0.06842451 -0.027382035
0000f0 78 8b 84 3d 41 8e 43 3d 6a ed e1 3d fb ad d6 bd
       0.06471914 0.047743086 0.11031611 -0.10482403
000100 f4 a0 0e be 6e 31 5a 3c 10 39 2b 3d 1d 4c 4d bc
       -0.13928586 0.013317449 0.041802466 -0.012530354
000110 39 ef d8 bc 70 ad 8e 3d 33 30 da bc 93 76 1c bd
       -0.026481258 0.06966674 -0.026634311 -0.03819902
000120 15 f7 36 3d 33 a1 8b 3d 12 29 ed bd 54 8e cc 3d
       0.04466923 0.06817856 -0.11580099 0.099880844
000130 6e a8 47 3d c7 61 db bd 7a e4 89 3d e2 0d b0 bd
       0.04874461 -0.10712009 0.067330316 -0.08596398
000140 8b 77 86 bd 13 67 3f bd 67 6f ae bc df a4 bd bc
       -0.0656577 -0.04672916 -0.021293355 -0.023149906
000150 16 f2 d7 bc 92 d7 05 3e 5f bc 1e 3d bd 37 20 bd
       -0.026360553 0.13070515 0.038753863 -0.039115656
000160 01 b1 07 bd e6 4a 92 3d b0 8a 59 bd 0a d4 e2 3b
       -0.03312779 0.07143192 -0.05311078 0.0069222497
000170 47 f9 aa 3d 7a 3d 6f 3d 55 c8 96 bd 25 db 8b bc
       0.08348327 0.058408238 -0.07362429 -0.01707227
000180 79 c9 96 bd e1 b2 9f bd 61 e1 fa 3c 97 e7 e8 bd
       -0.073626466 -0.0779779 0.030625047 -0.11372297

fc3.weight f4 [100, 100]
000000 05 27 3d bd 5d 06 bc 3d 85 f6 81 bd e7 28 9b 3c
       -0.04617979 0.09180901 -0.06345848 0.018940402
000010 3d 5a 61 bd c4 7d 6a bd 25 48 1c be 13 d9 c0 3c
       -0.0550177 -0.057248846 -0.15261896 0.023541009
000020 98 99 5e bd ce 55 04 be f0 71 e8 3d 51 65 d0 bd
       -0.054345697 -0.12923357 0.11349857 -0.101755746
000030 24 82 d7 bb dc db d3 bd 18 c7 60 3d 7e f6 4f 3d
       -0.0065767933 -0.10344669 0.05487737 0.050772183
000040 b8 87 68 bc fb 58 a1 3d 0b 7b 78 3c bf 3e 38 3e
       -0.014192514 0.078783 0.0151660545 0.17992686
000050 d5 2c f2 3c 4d 22 fc bd 4c dd bd bc e8 98 04 3e
       0.029562393 -0.1231123 -0.023176812 0.12948954
000060 67 4b d5 3d 53 a7 46 3d e6 8d 59 be 43 78 b0 bd
       0.104147725 0.048499417 -0.21245536 -0.08616688
000070 e0 4f 15 be 99 a2 09 3d fd 86 d7 3c a9 e6 6c be
       -0.14581251 0.03360233 0.026309485 -0.23134865
000080 f8 3b 0d 3e f6 60 c6 3c 08 87 37 3e d9 2b 9e bd
       0.13792408 0.024216156 0.17922604 -0.07723207
000090 17 06 25 3e bc d5 8b 3d d9 87 0a 3d 4e 9f 46 3b
       0.16115604 0.06827876 0.03382096 0.0030307355
0000a0 e2 0f a6 bc 99 15 5d 3e 86 67 ac 3d 1c b0 00 3e
       -0.020271245 0.2159027 0.08418183 0.1256718
0000b0 bd da 8b 3d e7 06 2b be f3 8e ea 3d e2 91 c4 3d
       0.068288304 -0.16701852 0.11453047 0.095981374
0000c0 41 3e 38 be 03 45 72 3e c0 c7 e7 bd bb d2 f7 3d
       -0.17992498 0.23659138 -0.11317396 0.121007405
0000d0 3d b7 b3 3d 0f ca f9 bd c4 b4 92 bc 7e 03 05 3e
       0.08775184 -0.12196743 -0.017908461 0.12989613
0000e0 bb f9 33 bc 2b 83 01 bd 5d d1 aa 3e 44 90 ce 3c
       -0.010984833 -0.031619232 0.33362857 0.025215276
0000f0 9e d7 d3 bd ea a9 7c 3e 5e e8 44 3d ee b9 0d 3e
       -0.1034386 0.24674192 0.048073165 0.13840458
000100 30 ac b8 3d 7a 06 3c bd 6f 65 04 be e4 4a 97 bd
       0.09017217 -0.045904614 -0.12929319 -0.07387331
000110 b5 f6 0b bd e9 66 73 be b8 67 23 3e 06 26 48 be
       -0.034170825 -0.23769726 0.15957534 -0.19545755
000120 e0 12 bc 3d af 85 89 3e 99 6c 34 3d 87 7e 2a 3e
       0.091832876 0.26859805 0.04404888 0.16649829
000130 eb 40 5a bd e9 67 52 3c dc d7 ad bd d3 23 bd bd
       -0.053284567 0.012842157 -0.084884375 -0.092353486
000140 00 8a c4 3d c4 a0 58 3e c2 5d 44 be 2e f5 3b 3d
       0.09596634 0.21155077 -0.19176391 0.04588812
000150 41 82 04 3e 2e c8 8b 3c 72 2a 2a bb 8a f5 85 be
       0.12940313 0.017063227 -0.002596524 -0.26163894
000160 11 4a 40 3e 0c 29 65 bc b7 51 3d 3e ce f1 26 3d
       0.18778254 -0.013986837 0.18488203 0.040757947
000170 79 fd e0 3d 41 7f 44 3c e5 a2 7f 3a 08 fc dd bc
       0.10985846 0.01199323 0.0009751751 -0.027097717
000180 7d 88 f3 3d ad a0 35 3d f7 40 07 3d 60 59 30 bd
       0.118912674 0.044342685 0.03302094 -0.043053985
000190 9a c6 b7 3d 1d 64 44 3d ef 49 d6 3d 8a 2f 62 3c
       0.08973427 0.047947038 0.104633205 0.0138052795
0001a0 c3 ad 95 3d 48 8b df 3d 56 eb 3e 3b 61 ca a5 bd
       0.07308533 0.10915238 0.002913197 -0.08095241
0001b0 46 4f 23 3e 8e d7 93 3d 2b c4 ab bd dc e8 29 3d
       0.15948209 0.07218848 -0.083870254 0.041481838
0001c0 d7 39 c5 3d 4b ca d9 bc cf a7 92 bd cf ee 82 3a
       0.09630173 -0.026585719 -0.07160913 0.0009989383
0001d0 3f f8 4d bd 16 5a c4 3c 1b 9a a3 bd 96 f7 13 3e
       -0.050285574 0.023968738 -0.07988378 0.14449915
0001e0 2e 70 bb ba f5 6e 5c 3c fa 8e 2b bd 09 63 50 bd
       -0.00143004 0.013454189 -0.0418844 -0.050875697
0001f0 3d 2c 82 ba 40 a1 29 3d e8 b9 8a bc 8d ba 54 3d
       -0.0009931397 0.041413546 -0.01693435 0.05193572
000200 01 fc 2c 3b 81 f3 eb 3c 5d d5 6c 3d 93 ea 90 bd
       0.0026395323 0.028802635 0.057820667 -0.070759915
000210 16 66 65 3d cd 1d 0d 3d c1 8d 92 bd 89 ff 86 3d
       0.05600556 0.03445225 -0.07155944 0.06591708
000220 ed 47 05 be 9a 0c 32 bd 37 91 a7 bc ff 3f 52 3d
       -0.13015719 -0.04346905 -0.020454986 0.051330563
000230 38 4e ca bd 78 87 2d be 8c c7 a5 3d 65 68 0c 3d
       -0.098782 -0.16946208 0.08094701 0.034279246
000240 91 f1 01 3d ac 73 80 3d 68 f6 5d 3d f8 53 90 bd
       0.031724516 0.06272063 0.05419007 -0.07047266
000250 06 cd 9a 3d fd e4 dd 3d 91 f0 51 39 4f 27 1b 3d
       0.07558636 0.10834692 0.00020021411 0.037879284
000260 28 c5 e4 bc 68 c8 cc 3d 30 7e 22 3e 77 e3 97 3d
       -0.027926043 0.09999162 0.15868449 0.07416432
000270 d3 6e 46 bd 38 39 8f 3d b6 a7 d2 bd 3f 20 4c 3d
       -0.048445534 0.069933355 -0.102858946 0.04983544
000280 14 e3 20 3b 34 4f 71 3d 6e bf 19 3b a2 77 a9 bd
       0.0024549412 0.058913425 0.0023460048 -0.08274771
000290 3e a0 68 3c 1d 94 1b 3e cc 3b 84 bc 5f 72 26 3d
       0.014198361 0.1519322 -0.016141795 0.040636417
0002a0 b5 44 98 3c 06 21 a0 bd 2e 11 d6 3c 28 2f 0c 3d
       0.01858745 -0.07818799 0.026131239 0.03422466
0002b0 ee 1a e8 3d 12 59 01 3e 4a 5c 73 3c 2d c1 a7 bb
       0.113332614 0.12631634 0.014853546 -0.005119464
0002c0 81 95 38 bd de 45 76 3d 6b 2e e5 3d 04 b5 62 bd
       -0.045064453 0.060125224 0.11190494 -0.05534841
0002d0 77 7b ad b9 43 30 fc 3d 4a b8 6d 3d 3c 1f b3 bc
       -0.0003308912 0.12313893 0.05803708 -0.02186548
0002e0 aa 6c b8 3c 74 17 ea 3d a3 df 6d 3d 82 c1 01 bd
       0.022512753 0.114302546 0.058074605 -0.031678684
0002f0 f8 19 8a 3d 8d 51 77 bd 44 ea 80 3d 4c 05 b2 3c
       0.067432344 -0.060380507 0.062946826 0.021731041
000300 9d 62 7d 3d 39 19 56 bd 87 f7 af 3d c2 f3 5e ba
       0.061861623 -0.052270148 0.08592134 -0.00085049507
000310 15 36 49 bd c5 6b 6c 3d 27 0b bf 3d 73 3a 9f bd
       -0.049123842 0.057719965 0.09328299 -0.0777482
000320 6f ca 97 3a bb 52 84 3d 50 ce 9c bd 71 19 a6 bd
       0.0011580716 0.06461092 -0.076565385 -0.08110321
000330 06 f1 ca 3d 99 34 03 3d 09 3e 3e bc d0 72 b9 3d
       0.09909253 0.032032583 -0.01161147 0.09055102
000340 9f 01 29 3d 21 41 20 bd b1 ac d3 3d eb 8c d0 bd
       0.04126131 -0.03912461 0.10335673 -0.10183128
000350 bf ee 36 bc 31 6f b2 bd 51 56 ff bc b3 ed 9f 3c
       -0.01116532 -0.08712614 -0.031169089 0.019522524
000360 58 fb 03 3d 03 7f 8e bd 86 8c cc bc 8e 01 1d be
       0.032222122 -0.06957819 -0.02496935 -0.15332624
000370 87 78 1b 3d da 7a c3 bc d2 c8 9a bd 96 cc 85 bd
       0.03795674 -0.023862291 -0.07557835 -0.06533162
000380 12 c2 a1 3d 84 43 a9 3c 0e ff b5 3d ea f0 b2 3d
       0.07898344 0.020662077 0.088865384 0.08737357
000390 97 ca 74 3d e4 71 d3 bd 03 58 24 bd 24 27 b2 bd
       0.059763517 -0.10324457 -0.040122997 -0.08698872
0003a0 3d 87 68 bd 8d 0e 94 3d 4d c1 c5 bc ef 08 81 bd
       -0.0567696 0.07229338 -0.024140025 -0.06300532
0003b0 bf ed 4f bd 1e 5f 72 bb 89 1b 44 3d 3e 78 23 be
       -0.05076384 -0.0036982964 0.047877822 -0.15963838
0003c0 91 90 e2 bd 8c 38 86 3d 61 86 5b 3d 6c ca 08 bb
       -0.1106273 0.06553754 0.05359495 -0.0020872606
0003d0 22 c4 a8 3d b4 d3 d0 bd 10 32 93 3d f1 30 24 3c
       0.08240534 -0.10196629 0.07187283 0.010021434
0003e0 99 7c d0 3c 83 8c e5 bb a9 72 17 3e c1 9f 01 3e
       0.025450038 -0.0070052757 0.14789833 0.12658598
0003f0 80 1c 78 bd c2 7a ca 3c 1d 1b 71 bd d7 a3 55 3d
       -0.060574055 0.024716739 -0.058863748 0.052158203

fc3.bias f4 [100]
000000 ae 24 ed bd ba 4d ff 3d 46 57 24 3d 79 6c c7 3d
       -0.11579262 0.12465997 0.040122293 0.097374864
000010 c9 e3 fa 3d 16 4a 7e 3d 9b 3e a7 3d 67 7f aa 3d
       0.12250478 0.062082373 0.08166238 0.08325081
000020 f8 58 36 3d c5 ec 8b 3d b6 e2 13 3d 37 51 06 3c
       0.04451844 0.068322696 0.03610488 0.008198074
000030 66 b5 1c 3d b8 37 91 3b ce c0 d4 3c bf cb f8 3c
       0.038258933 0.004431691 0.025970843 0.030370591
000040 14 7a e6 3d 02 bf f4 bc da 1d b3 3d d5 84 2e 3d
       0.11253753 -0.029876236 0.08745928 0.042607147
000050 18 ab 02 3e 10 79 95 3d a7 12 b2 3b 25 44 bc 3d
       0.1276058 0.072984815 0.0054343524 0.09192685
000060 c4 bc 93 bb d8 a9 ed bd fc ca 5c 3d 8c 49 6c bc
       -0.0045085866 -0.11604661 0.05390452 -0.014421832
000070 21 a8 09 3e bc 23 91 3c ec a2 ec bd 17 e5 d0 3d
       0.13443042 0.017717235 -0.115545124 0.101999454
000080 c2 49 66 bd 10 5a 06 3b c7 82 2c bc 2a b6 16 3d
       -0.056222685 0.0020500459 -0.010529227 0.03679482
000090 c6 e2 18 bc 09 ce 2e 3b 5c 0e 9e 3d eb a9 dc bc
       -0.009331411 0.00266731 0.077175826 -0.026936492
0000a0 78 6c e6 bd 59 a9 14 3d 27 16 e0 3d 1e a8 9a bd
       -0.112511575 0.036294315 0.10941725 -0.07551597
0000b0 ee 43 dc 3d 09 96 19 3e 4d 74 91 3d c4 70 b5 3c
       0.10755144 0.1499864 0.07102261 0.022148497
0000c0 55 92 34 3c 86 ad 3e 3d 58 47 6f 3d 89 52 1a be
       0.011021216 0.046552204 0.058417648 -0.15070547
0000d0 13 fe 0b 3d 80 f8 eb bc 97 c8 6c bd dc 74 89 bd
       0.03417785 -0.028805017 -0.057808485 -0.06711742
0000e0 a4 79 18 bd 8a 1e d5 3c 7b c9 aa 3d f8 c4 02 3e
       -0.03722538 0.026015539 0.083392106 0.1277045
0000f0 8c 70 0a 3d be 01 1e bd 63 bb a7 3d 10 d2 ae bd
       0.03379874 -0.03857588 0.08190038 -0.0853616
000100 eb e1 be 3d d2 bd 6f bd d8 8f d3 3c 6e 45 a3 3d
       0.09320434 -0.058530636 0.025825426 0.07972227
000110 c1 55 86 bd da 3f 83 3d 27 b9 bf bd fa 3f d3 bc
       -0.06559325 0.06408663 -0.09361487 -0.025787342
000120 67 9d d8 3d 23 1b 0b 3d 77 2b 93 bc 85 b8 81 bd
       0.10576897 0.033961426 -0.017965062 -0.063340224
000130 75 d4 ff 3b fa e2 01 bd 38 e1 7b 3c 2b a8 35 3d
       0.0078073093 -0.031710602 0.015373521 0.04434983
000140 0f 91 7b bb 15 7c 9e 3d d5 9e 89 3d b0 15 53 bd
       -0.0038386022 0.077385105 0.06719748 -0.051534355
000150 dd d6 9c bd be 0a bb bd e1 b2 bb 3d 7d 13 60 3d
       -0.076581694 -0.09132908 0.09164978 0.054706085
000160 84 d6 4c bc f1 f7 16 bd db fe fa 3c fa f4 5b bc
       -0.012502316 -0.03685755 0.030639103 -0.013425106
000170 ef a9 f9 3b 24 87 9c 3d f5 5b 5f bd 5d d6 15 be
       0.0076191346 0.076429635 -0.054531056 -0.14632554
000180 6a 7e a1 bc 9e d3 97 3c 41 2b 00 3d 0e 0c 66 bd
       -0.0197136 0.018533524 0.03129125 -0.05616384

fc4.weight f4 [8, 100]
000000 39 0e cf bd 4e af 04 3e 00 23 04 bd 54 df c7 bc
       -0.10110135 0.12957498 -0.03225994 -0.024398483
000010 9a 86 aa 3d 6f 0b 5e bd ab db d0 3c f3 bb 09 3c
       0.083264545 -0.054210123 0.02549537 0.008406627
000020 e5 0f c6 3b 65 1f bf bc 37 85 af 3b 9b 3e d5 bc
       0.0060443752 -0.0233304 0.0053564566 -0.02603083
000030 b0 19 10 3d 40 0f 35 bc 8d 62 62 bc 5e 3f b2 3c
       0.035180748 -0.011050999 -0.013817442 0.021758731
000040 ad 9e ad 3d 43 de 02 3c 4b 18 36 3e e0 bf c6 3d
       0.08477531 0.007987562 0.17782705 0.09704566
000050 14 3a bd 3d b5 42 cb 3c bc cb e9 3b 74 df 6a 3d
       0.09239593 0.024812082 0.0071348827 0.057342008
000060 19 bb cd 3c f3 2e 10 3e f3 cd ac 3c b2 ee 08 3d
       0.02511363 0.1408041 0.021094298 0.033430763
000070 b5 04 ca 3d c2 14 21 3f 1a 9d 00 3d 88 5a ea bd
       0.09864179 0.629223 0.031399824 -0.11443049
000080 8b 6a 89 3c 60 17 b6 3d 24 47 89 3c 86 6e be bd
       0.016774436 0.08891177 0.016757555 -0.092984244
000090 ba 89 9b bd a4 42 04 bd 4b 14 47 bd 9c 78 f2 3d
       -0.07594629 -0.032290116 -0.048603337 0.11839411
0000a0 13 a1 e4 bc 22 c5 7b 3d 9d 14 b2 3d 4b 83 81 b9
       -0.027908837 0.061467297 0.08695338 -0.00024702618
0000b0 1c 8f 89 3d 4d 17 99 bb bd 2a bd 3d 89 ec f1 3a
       0.06716749 -0.004671967 0.09236667 0.0018457334
0000c0 de f4 84 3d 01 f4 97 bd b9 9d 04 bd 30 1a b3 be
       0.06492017 -0.07419587 -0.03237698 -0.34980917
0000d0 3b 64 24 bd e6 7c 8d bc f8 a2 67 bc af f7 2a bd
       -0.04013465 -0.01727147 -0.014137976 -0.041740116
0000e0 4f 9d fc 3b d7 a4 6d bd 06 5b da 39 de 0e 01 3c
       0.0077091823 -0.05801853 0.00041648018 0.00787708
0000f0 c6 bc 63 bc 6f 44 8e 3d 5c ff 1d 3c f7 4b 39 bd
       -0.013899988 0.069466464 0.009643402 -0.04523846
000100 8e 39 93 bd fc 9c 3d 3e 98 83 f3 3c 55 bb b4 3d
       -0.07188712 0.18516916 0.029725835 0.08824793
000110 4a de a2 bc 2e 84 c8 3c 46 6e 7e bc 69 21 a0 3d
       -0.019881386 0.02447709 -0.015529221 0.078188725
000120 3d 4e 23 3d 53 c8 c9 3d 15 33 48 3d c0 31 a7 bc
       0.039869536 0.09852662 0.04887684 -0.020409465
000130 bc 02 a1 3c b2 dc 8b bd 5d f0 4a bd 7b 1e bd bd
       0.019654624 -0.06829204 -0.049545635 -0.09234329
000140 9c 28 c6 3d d1 a3 d0 3d 14 55 9b bd f4 d9 2e bd
       0.096757144 0.101874955 -0.07584587 -0.042688325
000150 9c 89 c5 3d 54 43 77 3c ac 0c 53 3c 6c e6 a4 bd
       0.096453875 0.015091736 0.012881439 -0.08051762
000160 0a 49 3e bc 07 52 8b bd 40 da 90 3c 2c 91 c1 bd
       -0.011614094 -0.06802755 0.017682195 -0.094515175
000170 98 53 15 bd 59 98 22 be fd 1d ff 3c 1e ff 5b bd
       -0.036456674 -0.15878429 0.03114223 -0.053710096
000180 63 bf 47 3e ab 4d 14 3e 17 c8 27 b9 e1 2e 46 3b
       0.19506602 0.14482753 -0.000160009 0.0030240344
000190 6e 41 8b bd c4 61 d8 3c 14 ee 9c bc 47 4f 95 3d
       -0.06799589 0.026413806 -0.019156493 0.072905116
0001a0 7e b6 0f 3d 5c 8c 4a 3d 43 54 7b bd d1 32 a4 bc
       0.035086147 0.049450263 -0.061359655 -0.020043762
0001b0 28 93 cb bd 2c d5 83 bc ab 71 87 3d 36 fc e2 bc
       -0.09940177 -0.01609286 0.06613477 -0.027708154
0001c0 31 e9 ce bd c7 d5 d8 3c 3d 82 12 bb 19 df f1 bc
       -0.101030715 0.026469124 -0.002235546 -0.029525327
0001d0 b2 f7 df 3d 94 c9 c3 bd a9 a6 30 3e ee b3 b4 3d
       0.10935916 -0.09559932 0.17251076 0.08823381
0001e0 5a b3 53 3d 9f b5 9c 3d 11 b5 c1 3d ba 01 6d 3d
       0.051684715 0.07651829 0.09458364 0.057862975
0001f0 92 3b ee 3c ac 21 70 bd ac 3a 9a bd 34 60 d7 3d
       0.02908114 -0.058625862 -0.07530722 0.10516396
000200 d6 c9 6f 3c 46 50 80 3e 7b f7 c3 bd 17 c8 0c bd
       0.014635524 0.25061244 -0.095686875 -0.034370508
000210 41 f4 7f bd 86 53 4f bd a8 39 71 3a 67 58 bd bc
       -0.062488798 -0.050616764 0.0009202012 -0.023113443
000220 19 ad 98 3d 50 ec 03 bd e1 10 9a 3d b3 45 56 3d
       0.07454891 -0.032207787 0.07522751 0.052312564
000230 c3 5d f2 3b a9 f3 e1 bd 7d 4f 92 3d a6 d5 27 bd
       0.007396431 -0.110328026 0.071440674 -0.040975235
000240 70 30 e9 bc 65 12 30 3d 2c a0 b4 3b 35 ec 33 3d
       -0.02846548 0.042986292 0.005512258 0.043926436
000250 ac 38 95 3c 3e 59 a3 bb 25 99 71 3d 45 63 ae bd
       0.0182155 -0.0049850037 0.05898394 -0.08515028
000260 52 02 40 bd 79 1f 28 bd 02 db 33 be 2a 7c 04 3e
       -0.046877213 -0.04104564 -0.17564014 0.1293799
000270 69 5a 93 3c 29 29 7e bd 9a 5c cd bb 2e 26 c6 3d
       0.017987447 -0.062050972 -0.0062671425 0.09675251
000280 cb 6b ad bb 1d b7 22 3d 7c 39 20 bd 99 d3 ce 3c
       -0.005292391 0.03972541 -0.03911732 0.025247382
000290 40 37 74 be 36 2e 41 3d a5 e0 65 bc 68 be 97 3b
       -0.23849201 0.04716321 -0.01403061 0.0046308525
0002a0 7d 4d 20 bc f9 9d 63 bb bd a9 28 3e 8b 3d 0a bc
       -0.0097841 -0.003473161 0.16471 -0.008437525
0002b0 98 81 1a 3d 10 39 52 3d b7 da 96 3d 6b c0 c6 3d
       0.037721246 0.05132395 0.07365935 0.097046696
0002c0 f1 91 27 3d 43 93 e7 bb 26 99 d6 3c 14 72 bf bd
       0.040910665 -0.0070671155 0.026196074 -0.093479306
0002d0 14 df 15 bd 18 3a 0b 3d 61 71 ec 3c 1e 4e 83 3d
       -0.036589697 0.03399095 0.028862657 0.06411384
0002e0 f1 c3 e2 bd fe 48 2c bd aa 88 83 3d 56 59 33 bc
       -0.11072529 -0.0420618 0.06422551 -0.010946592
0002f0 b2 d9 42 bd 8e 9c af 3d 00 50 f9 bc ac 13 38 3d
       -0.04757089 0.08574782 -0.030433655 0.044940636
000300 26 4b e0 3d db 1e ad 3b 0e af e3 bc 91 4b c5 bd
       0.109518334 0.0052832193 -0.027793434 -0.09633554
000310 b6 f6 b6 bd 14 6a 23 3d e2 85 92 bd eb 4c 9d bb
       -0.08933775 0.039896086 -0.07154442 -0.004800429
000320 90 55 45 bd 86 76 9f bc 6c 01 6e bd 26 da a3 3c
       -0.048177302 -0.019465696 -0.058106825 0.020001482
000330 13 0b 7f 3d 67 a7 f2 bc ae 4f 8c 3d 29 5c 29 bd
       0.06226642 -0.02962084 0.06851135 -0.041347656
000340 c3 b9 5c bc 9d 33 02 3d ac fd 70 3d f8 63 09 3d
       -0.013472023 0.031787504 0.05883567 0.033542603
000350 09 1f a3 3d c5 50 07 3d d1 d1 b3 bc da 09 00 bd
       0.07964904 0.033036012 -0.021950634 -0.031259395
000360 87 28 ab bc bd a9 1a bd 44 99 8b b9 5a fe 20 3d
       -0.020893348 -0.03775953 -0.00026626338 0.03930507
000370 20 ee 58 3d 28 5c 89 3d d1 1a 69 bc c7 3d 4b 3d
       0.05296147 0.067070305 -0.014227585 0.049619462
000380 74 53 88 bc c4 33 6c b8 72 5e 54 3d e8 58 08 3d
       -0.016641356 -5.6314995e-05 0.051847883 0.033287913
000390 b6 eb cc bc 7e 74 e3 3d 62 5c ff bc fb 78 bb 3c
       -0.02501474 0.111062035 -0.031171981 0.022884836
0003a0 74 3d fb 3c 7f 4b a1 bc 82 7f a0 bd 5c 0c d1 bd
       0.030668952 -0.01968932 -0.0783682 -0.102074355
0003b0 31 6b 34 3d ce ba 47 3d 2b 4a 27 bd a5 5a b4 3d
       0.04404754 0.048762135 -0.040842216 0.088063516
0003c0 a4 47 9f bd 89 d6 be bd b6 a1 f1 bc c9 1b 49 3d
       -0.07777336 -0.09318263 -0.029496055 0.049098764
0003d0 8f ca 8c bd 95 f8 a3 bc 34 44 93 3d 02 5b de 3b
       -0.068745725 -0.020015994 0.07190743 0.0067857513
0003e0 1a b9 88 3d 82 e9 38 bd 5e fa ac bd 76 60 7e bc
       0.0667593 -0.045144565 -0.08446191 -0.015525928
0003f0 a4 47 0f 3d 65 31 b6 bc 51 6b 8f bd e8 5d 5b bd
       0.03498043 -0.02224035 -0.07002891 -0.053556353

fc4.bias f4 [8]
000000 db 32 d7 bc b7 d9 0d bd b9 a9 9a bd 86 51 ce 3d
       -0.026269367 -0.034631457 -0.07551903 0.10074143
000010 7c 47 9c 3c f4 a7 a8 3c f4 fa 30 bd bc 6f b3 bc
       0.019077055 0.020587899 -0.043208078 -0.021903865
